models/lstm_demo.pth (torch, 434411 bytes, 7 tensors)

emb.weight f4 [43, 64]
0.0 0.0 0.0 0.0 0.0 0.0 0.0 0.0
0.0 0.0 0.0 0.0 0.0 0.0 0.0 0.0
0.0 0.0 0.0 0.0 0.0 0.0 0.0 0.0
0.0 0.0 0.0 0.0 0.0 0.0 0.0 0.0
0.0 0.0 0.0 0.0 0.0 0.0 0.0 0.0
0.0 0.0 0.0 0.0 0.0 0.0 0.0 0.0
0.0 0.0 0.0 0.0 0.0 0.0 0.0 0.0
0.0 0.0 0.0 0.0 0.0 0.0 0.0 0.0
1.2613299 0.5115961 1.2293153 0.128627 0.76122445 -1.5276743 0.6747387 0.84636784
0.04953763 -2.0990963 -0.42578867 -0.2392544 1.6313431 0.83308387 -1.06298 1.3841556
-0.604639 0.77229637 0.3152609 -1.8043578 0.612797 0.09822073 -0.7003645 0.5652958
1.3388207 -1.850821 0.45060956 0.93016946 -0.7623196 0.6092854 0.8948063 0.61330324
1.5192693 -1.4480736 0.9676861 -0.96789426 -1.3428116 1.1403561 1.2057803 0.8187635
-0.7633031 -1.0789652 -0.569043 0.5799005 -0.80080116 -0.60827553 -0.39046633 -1.4320518
-1.7854933 -0.16446346 0.26534602 -0.102110885 -1.3156967 1.455799 0.4869206 0.1442675
1.0244621 -0.59404373 -1.3442957 -0.46901596 0.083728604 0.15560341 0.93031627 -1.266855
0.05770319 -0.54755265 -1.2536067 -0.06078079 0.26627278 0.9934826 -0.7586663 1.439279
0.7580953 -0.79067886 -1.2209309 0.1277855 -0.45382506 1.051668 -1.0470197 -0.2564306
0.47867924 1.1239015 1.690543 2.885142 -0.55302376 -0.019892318 0.36369616 -0.24244165
-1.0478716 -0.1820613 2.4280887 0.33112818 -1.0562431 -2.8038802 -1.8260206 -0.41154045
-0.923782 -0.1825337 -0.1215149 0.08375173 0.25955042 0.11642485 0.5968046 1.8882319
1.1084472 -0.42138422 -1.4036537 1.3920274 -0.79214793 -0.70775664 0.6135824 0.017659174
-1.5046841 1.88404 0.2511954 -0.17137712 1.3047123 0.82590204 0.57716584 0.2513448
0.5769396 0.48466134 0.87855667 -0.31949964 -1.1759064 -0.20810321 -1.006251 0.12816818
1.2014371 0.2541695 -0.3881533 -2.5096903 -1.8761951 0.34511307 -0.58375 0.76320183
-0.35673282 -0.09715851 -0.37330493 -0.06379639 -1.7425611 -3.0687878 0.43520775 1.6482073
0.5778985 1.5276922 0.3313331 -0.4293669 -2.043022 1.4327003 1.8693533 1.0278908
-2.1754665 -0.33716756 0.07019588 -0.7351748 0.2566497 -0.09984216 -0.20650098 -0.30358508
1.4763312 -2.6998255 -0.16467133 -0.6285668 0.88948977 0.51055014 0.101387225 -0.042036213
-0.52919656 1.5485479 0.6117719 -2.6395059 1.3479844 0.07404833 1.1190939 -1.2527655
-0.35820067 1.1429384 1.1177332 -0.10216089 0.58229816 -0.51925874 -0.5525385 0.39167175
-0.22544616 0.2520534 -0.08077563 -0.38471496 -1.6160525 -1.1514541 -1.6904336 0.5560038
00000000: 0000 0000 0000 0000 0000 0000 0000 0000
00000010: 0000 0000 0000 0000 0000 0000 0000 0000
00000020: 0000 0000 0000 0000 0000 0000 0000 0000
00000030: 0000 0000 0000 0000 0000 0000 0000 0000
00000040: 0000 0000 0000 0000 0000 0000 0000 0000
00000050: 0000 0000 0000 0000 0000 0000 0000 0000
00000060: 0000 0000 0000 0000 0000 0000 0000 0000
00000070: 0000 0000 0000 0000 0000 0000 0000 0000
00000080: 0000 0000 0000 0000 0000 0000 0000 0000
00000090: 0000 0000 0000 0000 0000 0000 0000 0000
000000a0: 0000 0000 0000 0000 0000 0000 0000 0000
000000b0: 0000 0000 0000 0000 0000 0000 0000 0000
000000c0: 0000 0000 0000 0000 0000 0000 0000 0000
000000d0: 0000 0000 0000 0000 0000 0000 0000 0000
000000e0: 0000 0000 0000 0000 0000 0000 0000 0000
000000f0: 0000 0000 0000 0000 0000 0000 0000 0000
00000100: 4273 a13f f6f7 023f 345a 9d3f ccb6 033e
00000110: 9bdf 423f d58a c3bf adbb 2c3f 90ab 583f
00000120: f8e7 4a3d 9857 06c0 f900 dabe 1bff 74be
00000130: dacf d03f fc44 553f bb0f 88bf 032c b13f
00000140: 9fc9 1abf 37b5 453f e069 a13e 32f5 e6bf
00000150: 44e0 1c3f f327 c93d 164b 33bf 3ab7 103f
00000160: 7a5e ab3f b4e7 ecbf 4cb6 e63e 961f 6e3f
00000170: 6127 43bf 21fa 1b3f 0712 653f 7101 1d3f
00000180: 6b77 c23f 7a5a b9bf 47ba 773f ebc7 77bf
00000190: 40e1 abbf 30f7 913f 0257 9a3f 7c9a 513f
000001a0: d567 43bf 881b 8abf cdac 11bf 5c74 143f
000001b0: 4e01 4dbf f2b7 1bbf 34eb c7be 794d b7bf
000001c0: 0b8b e4bf 1c69 28be 6fdb 873e 831f d1bd
000001d0: c068 a8bf 9f57 ba3f a84d f93e dcba 133e
000001e0: 9321 833f 4013 18bf e211 acbf dc22 f0be
000001f0: e779 ab3d 8056 1f3e 3529 6e3f 4e28 a2bf
00000200: 2e5a 6c3d 692c 0cbf 2f76 a0bf 47f5 78bd
00000210: e854 883e e054 7e3f f437 42bf 4b3a b83f
00000220: 8912 423f ee69 4abf 7747 9cbf 34da 023e
00000230: c25b e8be 0f9d 863f be04 86bf df4a 83be
00000240: 7215 f53e 01dc 8f3f b763 d83f 2ba6 3840
00000250: f792 0dbf 37f5 a2bc 6236 ba3e a042 78be
00000260: a820 86bf 476e 3abe ce65 1b40 a289 a93e
00000270: f932 87bf c672 33c0 0bbb e9bf 6eb5 d2be
00000280: fa7c 6cbf 1dea 3abe cedc f8bd 0786 ab3d
00000290: cbe3 843e 2770 ee3d 30c8 183f 95b1 f13f
000002a0: 99e1 8d3f acbf d7be edaa b3bf f42d b23f
000002b0: 35ca 4abf 8a2f 35bf bc13 1d3f f9a9 903c
000002c0: 7d99 c0bf 3928 f13f af9c 803e 7c7d 2fbe
000002d0: d000 a73f 516e 533f 24c1 133f 44b0 803e
000002e0: 50b2 133f 8825 f83e 17e9 603f 7595 a3be
000002f0: 1a84 96bf 0219 55be d5cc 80bf 853e 033e
00000300: b1c8 993f 8122 823e 08bc c6be c49e 20c0
00000310: 2927 f0bf a9b2 b03e a470 15bf 3261 433f
00000320: afa5 b6be 0afb c6bd d321 bfbe afa7 82bd
00000330: 3e0c dfbf 0567 44c0 8dd3 de3e 75f8 d23f
00000340: 28f1 133f 6b8b c33f 7ea4 a93e fad5 dbbe
00000350: dfc0 02c0 b962 b73f f846 ef3f ed91 833f
00000360: d83a 0bc0 3aa1 acbe dcc2 8f3d 6a34 3cbf
00000370: 9767 833e 0c7a ccbd fe74 53be 816f 9bbe
00000380: 6cf8 bc3f f1c9 2cc0 9a9f 28be c1e9 20bf
00000390: 9ab5 633f 6ab3 023f 1ba4 cf3d 2a2e 2cbd
000003a0: 6d79 07bf d136 c63f 159d 1c3f aaed 28c0
000003b0: c18a ac3f a7a6 973d 783e 8f3f 9f5a a0bf
000003c0: 1466 b7be ce4b 923f e211 8f3f bb39 d1bd
000003d0: 7e11 153f 24ee 04bf 2a73 0dbf 3389 c83e
000003e0: 5cdb 66be 250d 813e b26d a5bd 5cf9 c4be
000003f0: cfda cebf d962 93bf 2160 d8bf 4456 0e3f

lstm.weight_ih_l0 f4 [512, 64]
0.0041711964 -0.07863355 0.019576168 -0.25683835 -0.053821657 -0.12546869 -0.104393706 0.055094674
0.02902073 -0.073685825 0.025372209 0.029456224 0.15765391 -0.049145196 -0.08851657 -0.019526329
-0.02408878 0.07206625 -0.040615257 0.13931328 -0.014920505 -0.08095816 0.08435053 0.21479201
0.010332407 0.17294966 0.124142066 -0.15610653 -0.14451046 -0.08801362 0.052184828 -0.2588463
-0.13911259 0.106036335 0.13008417 -0.044056043 0.07738771 0.070344 -0.040427934 0.04109642
-0.004462481 -0.2152179 -0.06879807 -0.012089186 -0.079444796 0.043795947 -0.023057548 0.07654254
0.027538512 0.12917016 -0.0721845 -0.09720192 0.11830435 -0.028942794 0.07600439 0.021681808
0.0031864394 0.08168455 -0.12532549 0.029751487 -0.04672519 -0.2220321 -0.16038306 -0.11734211
-0.05584152 0.28468475 0.06935253 0.21371414 0.18345268 -0.040950634 0.03957027 -0.0076698503
-0.11529538 -0.013162179 -0.02590187 0.03722718 0.12710536 0.09909968 0.078113124 -0.024821434
-0.024508065 0.065667 -0.14380844 -0.027673054 0.11112741 -0.13415235 -0.12425439 0.04398279
-0.08539849 -0.11432235 0.026625603 -0.07129548 0.12454332 0.17146887 -0.12870851 0.10994279
0.25270584 -0.21825862 -0.03776117 -0.011686536 -0.014451792 -0.16885677 0.03457788 0.1365166
0.06080444 0.040178034 -0.0030142346 -0.087047584 -0.07393715 -0.13144957 0.13950633 -0.06751705
0.13900812 -0.07311538 -0.10351821 -0.02856592 -0.18988995 -0.031905413 -0.06413894 -0.027357787
-0.0832663 -0.0130062215 0.20132573 0.14128205 -0.0036972878 -0.18655404 0.11929664 0.013204673
0.14717624 -0.020827528 -0.15367751 -0.015524187 -0.13052788 -0.012751305 0.017083557 -0.042860173
0.13783132 -0.09564231 -0.15710655 0.018367799 0.09656369 0.0019824035 -0.25046852 -0.039967354
-0.024766356 -0.03552772 -0.12594971 0.13074738 -0.20178513 -0.0834855 -0.24643233 -0.06314654
-0.179516 0.08929616 0.0890216 0.20661065 -0.20913959 0.12383415 -0.10077903 -0.0954346
-0.045112 0.0012184135 -0.09721895 0.0016979259 0.11168831 -0.015392664 0.029170072 0.11467182
-0.13250466 -0.1911253 0.17931654 0.046700247 -0.036686942 -0.071926475 0.0035350258 -0.14061229
-0.03589664 0.09257417 -0.040826295 0.06656986 0.044836577 0.152557 -0.051837716 0.13453226
0.089281276 -0.12208249 -0.016815191 0.083364315 -0.12471443 -0.10666698 0.034314066 0.14199963
0.02231072 -0.004743913 -0.06828101 -0.050455146 -0.063275576 0.000119388686 -0.05330144 -0.053866994
0.15532261 0.00532473 -0.016956555 -0.13524698 0.114711456 0.10621527 0.007788515 0.037362374
-0.12829258 0.014759388 -0.040959787 0.206799 -0.14044534 -0.018166263 0.079141885 -0.1675457
0.03999318 0.036119808 0.25845176 0.14867944 0.07446052 -0.1309607 -0.06866296 -0.11260416
0.03919406 -0.108711526 0.013994065 0.0761865 -0.041575775 -0.041006155 0.10208615 0.04145858
-0.06534627 -0.047817983 -0.009277038 -0.13944139 -0.07362368 -0.08140506 -0.06434829 -0.065958746
0.22625825 0.04191838 0.06858538 0.028889528 -0.10857765 0.064120255 0.067060225 -0.094133
0.03535939 0.072145045 0.11686 0.061077446 0.0018870545 0.021993276 0.03867207 0.12324772
00000000: 88ae 883b a00a a1bd 335e a03c 5180 83be
00000010: 1974 5cbd dd7a 00be 5ecc d5bd f4aa 613d
00000020: e2bc ed3c 98e8 96bd 61d9 cf3c 2e4e f13c
00000030: 0770 213e 794c 49bd 2d48 b5bd aef5 9fbc
00000040: d555 c5bc 7897 933d 2f5c 26bd 24a8 0e3e
00000050: 2275 74bc 64cd a5bd f8bf ac3d 70f2 5b3e
00000060: 4249 293c b719 313e 323e fe3d 64da 1fbe
00000070: 8dfa 13be 7c40 b4bd c2bf 553d 8187 84be
00000080: 8873 0ebe 9429 d93d c934 053e 1c74 34bd
00000090: 737d 9e3d 8410 903d c397 25bd b854 283d
000000a0: 013a 92bb 1562 5cbe 01e6 8cbd b911 46bc
000000b0: f4b3 a2bd 6163 333d 2fe3 bcbc 56c2 9c3d
000000c0: 7298 e13c 2f45 043e 78d5 93bd cd11 c7bd
000000d0: 8d49 f23d 7019 edbc 31a8 9b3d 0c9e b13c
000000e0: 95d3 503b 3b4a a73d 5355 00be 64b9 f33c
000000f0: ea62 3fbd 625c 63be 753b 24be 0f51 f0bd
00000100: 14ba 64bd 33c2 913e b308 8e3d e1d7 5a3e
00000110: 05db 3b3e dabb 27bd 6f14 223d 5e53 fbbb
00000120: fc1f ecbd 2ea6 57bc 2930 d4bc 877b 183d
00000130: e827 023e c6f4 ca3d c6f9 9f3d 5256 cbbc
00000140: 23c5 c8bc 6c7c 863d 8542 13be 9ab2 e2bc
00000150: c496 e33d 3c5f 09be 1679 febd 4c27 343d
00000160: 67e5 aebd d621 eabd f01d da3c 5d03 92bd
00000170: 9110 ff3d 8995 2f3e 2acc 03be af29 e13d
00000180: a962 813e 307f 5fbe 75ab 1abd e278 3fbc
00000190: 36c7 6cbc cae8 2cbe 89a1 0d3d 02cb 0b3e
000001a0: 140e 793d b991 243d 778a 45bb 0146 b2bd
000001b0: 5c6c 97bd b79a 06be bfda 0e3e 6146 8abd
000001c0: 2558 0e3e 84bd 95bd 5b01 d4bd 1403 eabc
000001d0: 8372 42be 40af 02bd 475b 83bd 701d e0bc
000001e0: 8687 aabd 0c18 55bc 5528 4e3e 3eac 103e
000001f0: 324e 72bb 0608 3fbe cc51 f43d 6a58 583c
00000200: 5eb5 163e 7e9e aabc a35d 1dbe 2959 7ebc
00000210: 1aa9 05be d9ea 50bc d1f2 8b3c 268e 2fbd
00000220: a723 0d3e 1ee0 c3bd 8ae0 20be 1178 963c
00000230: 2fc3 c53d 36eb 013b 693d 80be cfb4 23bd
00000240: d0e2 cabc 8485 11bd f6f8 00be a4e2 053e
00000250: c3a0 4ebe 72fa aabd c258 7cbe f952 81bd
00000260: 0bd3 37be e8e0 b63d f550 b63d be91 533e
00000270: b028 56be c29c fd3d 3c65 cebd 3773 c3bd
00000280: 5cc7 38bd 2cb3 9f3a bb1a c7bd f08c de3a
00000290: d7bc e43d 8331 7cbc 13f6 ee3c 0fd9 ea3d
000002a0: 4daf 07be 5ab6 43be c19e 373e c248 3f3d
000002b0: 0c45 16bd 304e 93bd e4ab 673b abfc 0fbe
000002c0: 5b08 13bd 8797 bd3d 7939 27bd c755 883d
000002d0: 8fa6 373d e737 1c3e c953 54bd d3c2 093e
000002e0: 1ad9 b63d 6206 fabd 03c0 89bc e9ba aa3d
000002f0: 476a ffbd 3874 dabd e88c 0c3d 5a68 113e
00000300: f9c4 b63c d472 9bbb ead6 8bbd 0eaa 4ebd
00000310: a096 81bd 5060 fa38 9c52 5abd a3a3 5cbd
00000320: e40c 1f3e 137b ae3b 79e8 8abc 2f7e 0abe
00000330: d7ed ea3d 6487 d93d cd36 ff3b 4a09 193d
00000340: 215f 03be 5cd1 713c 73c5 27bd 1ec3 533e
00000350: e7d0 0fbe 6ad1 94bc 2415 a23d 1a91 2bbe
00000360: e4cf 233d 5df2 133d ca53 843e 6c3f 183e
00000370: c27e 983d 901a 06be 2a9f 8cbd 039d e6bd
00000380: f389 203d 26a4 debd 5d47 653c ab07 9c3d
00000390: 5c4b 2abd 12f6 27bd 8b12 d13d 79d0 293d
000003a0: 44d4 85bd cadc 43bd b8fe 17bc b9c9 0ebe
000003b0: 03c8 96bd b2b7 a6bd 09c9 83bd 6115 87bd
000003c0: 3eb0 673e 9bb2 2b3d 7e76 8c3d bba9 ec3c
000003d0: f55d debd 7b51 833d df56 893d cdc8 c0bd
000003e0: 02d5 103d c8c0 933d 4c54 ef3d 582c 7a3d
000003f0: 0b57 f73a 3e2b b43c 9b66 1e3d 4d69 fc3d

lstm.weight_hh_l0 f4 [512, 128]
0.12037648 0.18975438 0.05441137 0.038707647 0.039884742 0.13441323 -0.19494347 -0.08462755
0.04459464 0.056159962 0.094001636 0.08577289 0.298358 -0.003144618 0.023639075 -0.07156723
0.01218934 0.002728899 0.087630816 -0.046697363 -0.1041002 0.097572386 -0.26404145 0.103000775
-0.15157932 0.16435926 0.2391309 -0.11608781 -0.14823443 -0.023296453 0.08496596 -0.06466317
0.05293682 -0.03700199 0.080705605 -0.102473244 0.22314723 -0.036396444 0.009258701 0.13788934
0.027159339 -0.093333766 -0.12682985 -0.1385291 -0.18503518 0.06404245 -0.029178089 0.111452855
0.17372477 -0.18759793 0.1441623 -0.094660856 -0.032463636 0.19051321 0.14632207 0.13128282
-0.046326872 -0.14188838 -0.13615654 -0.14002042 -0.07387298 -0.045522902 -0.06482841 -0.09658403
0.057808656 -0.0005766113 0.10749057 -0.1293724 -0.080376916 -0.0016629978 -0.15909195 0.14080378
0.119608894 0.04414184 -0.18680798 -0.16052626 0.12585594 -0.14026017 0.02036417 0.001010569
-0.16035993 0.062339082 -0.094613716 -0.07778784 0.0057638064 -0.10841558 -0.041424263 -0.045201506
0.19266075 0.11684565 0.15419865 0.20946765 -0.03854108 -0.020433057 0.008552699 -0.04512417
0.012506653 0.018837268 -0.08737119 -0.03795339 -0.089411445 0.1955414 0.018871417 -0.111545734
-0.010954408 -0.037079714 0.13153842 0.17474729 -0.024926372 0.037848137 0.012011822 -0.020811098
-0.15567 -0.13799508 0.26065063 0.08415252 0.07448077 0.123261124 0.0609764 0.048457056
0.13987604 0.056532416 0.14933796 -0.000672964 0.03514027 -0.12526695 0.039407097 -0.054219
-0.21950364 0.11385585 0.14253744 0.15985021 -0.06781976 0.039478976 0.099787615 0.03436217
-0.051696904 -0.08583381 0.2390224 0.2419158 0.17161487 -0.045705233 -0.18815342 -0.10909411
0.035909414 0.14856285 0.06240718 -0.13872947 -0.038374938 0.102422275 0.033502843 0.0141337495
-0.25948954 0.059923958 0.12995598 -0.18346606 -0.10931815 0.09025685 -0.08558501 -0.08699736
0.11030173 -0.050511543 0.027483553 0.27363664 0.010771812 -0.043816023 -0.078304835 0.10705732
0.096645825 -0.09013727 0.029451253 -0.22693245 -0.04161969 0.16513579 0.08106488 0.061415784
0.069484785 -0.14992379 0.02523916 -0.00611229 0.010614915 0.14615038 0.16786392 0.02967793
0.09604748 0.0105662355 0.028816538 -0.05588111 0.03855148 -0.19943717 -0.17647716 -0.0321538
0.0034083317 0.013467423 0.06035877 -0.2894727 -0.18949176 -0.048465982 0.0025569373 -0.028711352
0.32051906 0.014821114 -0.12600406 -0.19081219 -0.032377675 -0.19883654 0.116176635 0.10277993
-0.09627948 0.19934472 -0.038309343 -0.19324224 -0.08496243 -0.032445174 -0.16012937 -0.116009824
0.10512051 -0.051301602 0.06747927 0.14062129 -0.10622932 0.18748039 0.055795677 -0.090946
-0.09159052 0.03980571 -0.09531737 -0.06809448 0.04683327 0.25006834 0.096247636 -0.070696145
-0.061098576 -0.05244132 0.14787796 -0.1893188 0.2811061 0.2929973 0.2892467 -0.11466606
-0.16021557 -0.06859996 -0.02352995 0.011460833 0.1517455 0.0492332 0.013857624 -0.016306758
-0.09459415 0.044188768 0.16587539 0.20627294 0.067305036 -0.110787645 0.010717357 -0.0023704283
00000000: f287 f63d f94e 423e 75de 5e3d e98b 1e3d
00000010: 2f5e 233d 9fa3 093e 439f 47be 3551 adbd
00000020: dfa8 363d fd07 663d ee83 c03d b2a9 af3d
00000030: 61c2 983e ef15 4ebb bca6 c13c d791 92bd
00000040: ccb5 473c 54d7 323b c977 b33d bc45 3fbd
00000050: 7c32 d5bd 08d4 c73d 7130 87be 12f2 d23d
00000060: 9c37 1bbe cb4d 283e bbde 743e 72bf edbd
00000070: c4ca 17be 34d8 bebc a202 ae3d 206e 84bd
00000080: 47d4 583d 668f 17bd fb48 a53d 7edd d1bd
00000090: b580 643e 7014 15bd ceb1 173c dd32 0d3e
000000a0: 437d de3c c625 bfbd afdf 01be 93da 0dbe
000000b0: dd79 3dbe b028 833d e306 efbc 6541 e43d
000000c0: e8e4 313e ac19 40be 489f 133e 8ddd c1bd
000000d0: 97f8 04bd e515 433e 74d5 153e 016f 063e
000000e0: 3fc1 3dbd 304b 11be 9f6c 0bbe 8361 0fbe
000000f0: b84a 97bd 3976 3abd c2c4 84bd d9cd c5bd
00000100: c5c8 6c3d bb27 17ba 0424 dc3d 337a 04be
00000110: a79c a4bd f2f8 d9ba 00e9 22be de2e 103e
00000120: 82f5 f43d 13ce 343d 974a 3fbe ff60 24be
00000130: 61e0 003e 5da0 0fbe c3d2 a63c 1275 843a
00000140: 6535 24be 4457 7f3d d6c4 c1bd 3b4f 9fbd
00000150: 50de bc3b fd08 debd 7dac 29bd 3725 39bd
00000160: dc48 453e c64c ef3d 40e6 1d3e b07e 563e
00000170: 40dd 1dbd 3a63 a7bc 9f20 0c3c 1fd4 38bd
00000180: b4e8 4c3c 9d50 9a3c abef b2bd 0475 1bbd
00000190: 591d b7bd 013c 483e 3b98 9a3c 1772 e4bd
000001a0: 1e7a 33bc e6e0 17bd 02b2 063e f4f0 323e
000001b0: 6432 ccbc a606 1b3d 3ccd 443c 097c aabc
000001c0: f567 1fbe 954e 0dbe 0074 853e 2858 ac3d
000001d0: 6089 983d 5470 fc3d 64c2 793d e87a 463d
000001e0: aa3b 0f3e 898e 673d 0dec 183e d969 30ba
000001f0: 3eef 0f3d fb45 00be 5669 213d be14 5ebd
00000200: 90c5 60be 422d e93d 56f5 113e c6af 233e
00000210: 16e5 8abd b5b4 213d 735d cc3d 59bf 0c3d
00000220: 22c0 53bd a3c9 afbd 4ac2 743e c7b8 773e
00000230: cfbb 2f3e 6935 3bbd 4aab 40be bc6c dfbd
00000240: c015 133d dc20 183e ac9e 7f3d 190f 0ebe
00000250: 0a2f 1dbd c5c2 d13d 473a 093d 3e91 673c
00000260: d0db 84be d372 753d 2e13 053e 87de 3bbe
00000270: 32e2 dfbd 95d8 b83d 3247 afbd ac2b b2bd
00000280: e0e5 e13d 31e5 4ebd 3025 e13c 1a1a 8c3e
00000290: 417c 303c 6e78 33bd 495e a0bd de40 db3d
000002a0: 3fee c53d e499 b8bd c143 f13c fb60 68be
000002b0: 6879 2abd 5b19 293e 5805 a63d 1e8f 7b3d
000002c0: 0a4e 8e3d 9f85 19be 5bc2 ce3c 9b49 c8bb
000002d0: 2eea 2d3c 72a8 153e 85e4 2b3e 211f f33c
000002e0: 8bb4 c43d 011e 2d3c a910 ec3c 97e3 64bd
000002f0: 28e8 1d3d 4239 4cbe 6eb6 34be b4b3 03bd
00000300: 515e 5f3b 77a6 5c3c c23a 773d c435 94be
00000310: 210a 42be 4484 46bd 4a92 273b 1234 ebbc
00000320: 131b a43e 42d4 723c 3507 01be 4564 43be
00000330: 749e 04bd ce9b 4bbe 04ee ed3d 497e d23d
00000340: 2d2e c5bd 0621 4c3e 42ea 1cbd 4be1 45be
00000350: c800 aebd 3be5 04bd f4f8 23be 8f96 edbd
00000360: 6c49 d73d a121 52bd 9232 8a3d 07ff 0f3e
00000370: c28e d9bd dcfa 3f3e 028a 643d e541 babd
00000380: d093 bbbd 500b 233d c135 c3bd 1e75 8bbd
00000390: 3ed4 3f3d f508 803e 7b1d c53d 24c9 90bd
000003a0: 8042 7abd b6cc 56bd 526d 173e cadc 41be
000003b0: 24ed 8f3e be03 963e 2518 943e 0ad6 eabd
000003c0: 8d0f 24be 237e 8cbd e2c1 c0bc 38c6 3b3c
000003d0: 2c63 1b3e c0a8 493d 160b 633c c095 85bc
000003e0: 94ba c1bd 48ff 343d 3ddb 293e 3739 533e
000003f0: 39d7 893d a2e4 e2bd da97 2f3c 3059 1bbb

lstm.bias_ih_l0 f4 [512]
0.20315641 0.10069402 0.08329031 0.14802994 0.1122606 0.14655311 0.11715507 0.2162064
0.13312599 0.09269216 0.28518835 0.080429174 0.14265838 0.19011557 0.29186782 0.18734637
0.06709839 0.11310766 0.18694572 0.21856342 0.22957642 0.07298061 0.15349229 0.11539363
0.011920603 0.018181233 0.11107085 0.06380142 0.22216862 0.09089185 0.19757988 0.20236647
-0.029323177 0.22219262 0.14101852 0.20872721 0.20973852 0.20675865 0.1811314 0.16211407
0.053093724 0.25064594 0.14396562 0.13556376 0.099315226 0.15670039 0.08640653 0.049773637
0.12300422 0.078143574 0.14776154 0.016885106 0.1509021 0.108983584 0.10190855 0.13285172
0.22165312 0.049933385 0.1673864 0.17039329 0.02317904 0.16042499 0.1596202 0.18793362
0.19501112 0.053188745 0.075611494 0.11811374 0.03324131 0.07904336 0.1298068 0.115207724
0.18625027 0.17453066 0.26170713 0.14960627 0.14098904 -0.0553436 0.11968873 0.034525443
0.10103034 0.0931415 0.06621886 0.1131932 0.23098066 0.18477252 0.16505161 0.18995461
0.1118755 0.19020595 0.074853875 0.12838113 0.16038932 0.1566474 0.2037949 0.12450158
0.059919234 0.1176912 0.12464097 0.17206328 0.18204619 0.046995077 0.13924459 0.09693215
0.037971552 0.28023335 0.25918117 0.10253425 0.070711 0.2281753 0.24889055 0.0904179
0.27064827 0.26169997 0.19698066 0.10585463 0.060022894 0.20970432 0.2304282 0.104071714
0.1275927 0.15279022 0.15224753 0.073477946 0.0057515595 0.18130082 0.10122923 0.18060923
-0.025711993 -0.05002496 -0.02143641 0.033784106 -0.007447302 0.19882299 0.07933232 0.1576379
-0.028154539 -0.005047258 0.106715575 0.09456677 0.00082862243 0.1676635 -0.008066657 0.03943916
0.1784288 -0.043118298 -0.013367745 0.13730921 -0.04341101 -0.07758585 0.062232114 -0.05199707
-0.087468475 0.029027753 -0.038832936 -0.010598991 0.29316738 0.037111457 0.1306999 0.113515444
0.07936046 -0.047691546 0.12522809 -0.04937085 -0.0941032 0.1369513 0.07018632 0.069464624
0.0072659287 -0.032087497 0.06658398 0.11602203 0.11766379 0.18442474 0.085156865 0.026086377
0.06934814 -0.01088471 -0.00913751 0.074653186 0.07719567 0.14769693 0.011427887 0.043222196
-0.00845698 -0.015404041 -0.05942259 0.13584785 -0.0042466824 0.12465568 -0.1544579 0.06987779
0.004512514 -0.1386048 -0.08992257 -0.10925933 0.013084845 -0.008806582 -0.056838006 0.09999598
0.004523772 -0.05698061 0.08893304 0.026248632 0.11003876 0.10640068 0.019009452 0.03823456
0.17362507 0.20387195 0.030294135 0.06422627 0.060386032 -0.047413126 0.11060297 0.13863525
0.13660486 0.058055375 0.13421923 0.02267673 0.02592959 -0.015065733 -0.10639757 0.150659
0.18829925 0.04625783 0.23159894 0.16970737 -0.017184805 0.021664334 0.10399447 0.25517356
0.18689314 0.07761509 -0.060264725 -0.048674617 -0.0026719365 0.05213084 0.025760196 0.043305375
0.00024935708 0.004885556 -0.058662154 0.031272255 0.042636324 0.101866566 0.019339921 0.057796225
0.1246396 -0.03527583 0.060993552 0.04673211 0.039410327 -0.074937396 0.14525883 0.003910267
00000000: 3c08 503e ab38 ce3d 1c94 aa3d 2995 173e
00000010: e3e8 e53d 0512 163e ffee ef3d 3665 5d3e
00000020: 2e52 083e 63d5 bd3d 3504 923e 0db8 a43d
00000030: 0a15 123e a8ad 423e b36f 953e bad7 3f3e
00000040: e16a 893d fda4 e73d b36e 3f3e 17cf 5f3e
00000050: 1516 6b3e dc76 953d 152d 1d3e 7f53 ec3d
00000060: a24e 433c cff0 943c 1d79 e33d 52aa 823d
00000070: 2c80 633e 8225 ba3d 6152 4a3e 2839 4f3e
00000080: 2937 f0bc 7686 633e 2967 103e 96bc 553e
00000090: b2c5 563e 8ab8 533e 827a 393e 3b01 263e
000000a0: ce78 593d aa54 803e b96b 133e 3ad1 0a3e
000000b0: c865 cb3d 1176 203e e8f5 b03d 71df 4b3d
000000c0: a3e9 fb3d bd09 a03d cd4e 173e a252 8a3c
000000d0: 1586 1a3e c932 df3d 6eb5 d03d 480a 083e
000000e0: 09f9 623e f386 4c3d 5767 2b3e 947b 2e3e
000000f0: f8e1 bd3c 7346 243e 7a73 233e ac71 403e
00000100: ffb0 473e 71dc 593d 33da 9a3d 9ee5 f13d
00000110: 0a28 083d 7ce1 a13d 13ec 043e 07f2 eb3d
00000120: 64b8 3e3e 2ab8 323e 7afe 853e 6332 193e
00000130: 6e5f 103e f9af 62bd 5d1f f53d 8d6a 0d3d
00000140: ffe8 ce3d f9c0 be3d c19d 873d d6d1 e73d
00000150: 3286 6c3e 0235 3d3e 4a03 293e 7683 423e
00000160: fb1e e53d 59c5 423e fd4c 993d 5876 033e
00000170: 193d 243e 2d68 203e 9caf 503e affa fe3d
00000180: df6d 753d 1508 f13d c443 ff3d 5b31 303e
00000190: 516a 3a3e e97d 403d 2296 0e3e 5d84 c63d
000001a0: 0f88 1b3d bf7a 8f3e 65b3 843e 7afd d13d
000001b0: eed0 903d c9a6 693e 2add 7e3e 052d b93d
000001c0: 6992 8a3e 8afd 853e 4cb5 493e 50ca d83d
000001d0: 91da 753d bbbc 563e 5ff5 6b3e 8d23 d53d
000001e0: a9a7 023e 0a75 1c3e c7e6 1b3e 9b7b 963d
000001f0: 9477 bc3b eca6 393e 4551 cf3d a0f1 383e
00000200: f5a1 d2bc f9e6 4cbd 699b afbc 3461 0a3d
00000210: 7f08 f4bb 4198 4b3e fc78 a23d d46b 213e
00000220: 59a4 e6bc 7863 a5bb b28d da3d 39ac c13d
00000230: e937 593a fbaf 2b3e 032a 04bc f58a 213d
00000240: 0ab6 363e d09c 30bd 6304 5bbc c99a 0c3e
00000250: becf 31bd 55e5 9ebd 1ae7 7e3d e1fa 54bd
00000260: ac22 b3bd 9ccb ed3c 490f 1fbd 64a7 2dbc
00000270: 091a 963e 2f02 183d 32d6 053e c97a e83d
00000280: bd87 a23d 3658 43bd cb3b 003e 1739 4abd
00000290: 2eb9 c0bd f63c 0c3e d8bd 8f3d 7843 8e3d
000002a0: 0717 ee3b 2e6e 03bd 2f5d 883d f59c ed3d
000002b0: b7f9 f03d d7d9 3c3e b966 ae3d 19b3 d53c
000002c0: 6606 8e3d c855 32bc 7fb5 15bc c5e3 983d
000002d0: c318 9e3d dd3d 173e 083c 3b3c c209 313d
000002e0: 258f 0abc 3b61 7cbc 1a65 73bd b31b 0b3e
000002f0: c127 8bbb 7a4b ff3d 362a 1ebe 161c 8f3d
00000300: b6dd 933b 6bee 0dbe 5329 b8bd 5bc3 dfbd
00000310: d161 563c 7b49 10bc f8ce 68bd b1ca cc3d
00000320: 263c 943b 8064 69bd 8722 b63d 5f07 d73c
00000330: 005c e13d 9ae8 d93d b6b9 9b3c d89b 1c3d
00000340: c5ca 313e cfc3 503e 682b f83c 1089 833d
00000350: 5857 773d 4434 42bd cf83 e23d 66f6 0d3e
00000360: 25e2 0b3e 79cb 6d3d c470 093e 8dc4 b93c
00000370: 4b6a d43c 44d6 76bc f8e6 d9bd 5a46 1a3e
00000380: 85d1 403e da78 3d3d 4628 6d3e c5c7 2d3e
00000390: 26c7 8cbc 6779 b13c 0dfb d43d 1ca6 823e
000003a0: ea60 3f3e a9f4 9e3d 25d8 76bd 095f 47bd
000003b0: a81b 2fbb 2687 553d 0c07 d33c fa60 313d
000003c0: 24bc 8239 0417 a03b ba47 70bd 5617 003d
000003d0: 6da3 2e3d 6b9f d03d c16e 9e3c bcbb 6c3d
000003e0: 0c43 ff3d 647d 10bd 60d4 793d 2b6a 3f3d
000003f0: b96c 213d c778 99bd bbbe 143e b221 803b

lstm.bias_hh_l0 f4 [512]
0.10629394 0.1528699 0.19848138 0.1753308 0.16677646 0.0704564 0.11362015 0.19403125
0.008462085 0.2366174 0.16146024 0.13283949 0.22811717 0.14769132 0.3029924 0.22077277
0.1439038 0.017708287 0.08983075 0.1955072 0.16763745 0.14066596 0.09119525 0.1675081
0.07297372 -0.014743916 0.12657708 0.16671166 0.24180333 0.09966559 0.20010555 0.23128754
0.018815812 0.22591496 0.25042966 0.08015765 0.10124799 0.038851652 0.16493915 0.22610801
0.16941486 0.2357269 0.0859085 0.047355406 0.1363959 0.11257483 0.11198324 0.17873663
0.101595365 0.1582405 0.16501373 0.16472612 0.0751143 0.13003366 0.11633406 0.24169883
0.14438044 0.10019634 0.20703408 0.12860286 0.13622671 0.11248062 0.10919132 0.12099353
0.107045606 0.08328989 0.054691106 0.03998628 0.095150836 0.06169299 0.16105375 0.110698156
0.2336876 0.07295624 0.22669719 0.1406293 0.18312499 -0.00943721 0.10334034 0.030706968
0.032117207 0.13495165 0.13532564 0.10785892 0.21806929 0.13609591 0.17715928 0.11125624
0.07872003 0.07233011 0.079215966 0.1951776 0.037433516 0.21062824 0.13714893 0.13657165
0.033160783 0.045119103 0.19858089 0.1491564 0.0519152 0.072024 0.17896926 0.20338833
0.06887692 0.22628745 0.2262086 0.19767047 0.08158167 0.06246254 0.20401824 0.12725025
0.27294418 0.287001 0.110686965 0.24413699 0.19477391 0.26808962 0.18701299 0.12859555
0.11073575 0.109449506 0.08821929 0.0407442 0.123164274 0.10590296 0.15906796 0.26693836
0.0051977253 -0.008250696 -0.09761314 -0.066080265 0.05723595 0.22444709 -0.008450813 0.14072868
0.08303049 -0.025063518 0.050895475 0.031213466 0.082598336 0.09108015 -0.08307361 0.16372456
0.17606618 0.053805493 -0.075107 0.08392782 0.04410854 -0.014930351 0.10609869 -0.088172995
-0.08667563 0.09299346 0.027175564 0.050178204 0.24563453 0.038564447 0.02904664 0.08358155
-0.024424314 -0.064950444 0.036526997 -0.026280453 -0.022443002 0.13925484 0.12734264 0.1414885
0.14861552 0.01334472 0.14800172 0.1489443 0.12156847 0.1186566 0.037603673 0.0037837692
-0.022349447 0.0045695477 -0.014054095 0.108357295 0.06781178 0.09518846 -0.020528805 0.12791054
0.08932555 0.12385433 0.077204615 0.09123471 0.041078147 0.11011899 -0.11019157 0.19570689
0.0054948414 -0.12924723 -0.022103438 -0.001726663 0.031126305 0.039447695 0.082328744 0.16343299
0.10114432 0.022861881 0.12596764 0.062397655 0.061769288 0.093714185 -0.034465678 0.06406245
0.033021595 0.120931625 -0.059902903 0.15783295 -0.0042776624 -0.067287475 0.08951277 0.018944379
0.063175544 0.07476815 0.018788602 0.07010647 0.09876215 0.046905972 -0.010031798 0.11666299
0.050232444 0.06548381 0.1926776 0.14532386 0.030974949 -0.0851986 0.16011989 0.17469993
0.1812037 -0.0074981316 -0.051591028 -0.08167952 -0.088361174 0.03270513 -0.00434135 -0.09242337
0.054633327 0.075438075 0.03794594 -0.023274168 0.02349082 -0.023206925 0.028699934 0.019647408
0.053810865 -0.02807352 0.03424604 0.0115877865 0.0044808844 -0.14471518 -0.0047519472 0.016844317
00000000: a3b0 d93d ed89 1c3e b43e 4b3e eb89 333e
00000010: 73c7 2a3e 724b 903d aeb1 e83d 21b0 463e
00000020: 8fa4 0a3c d54b 723e d555 253e 1307 083e
00000030: 8c97 693e 653c 173e d221 9b3e 4212 623e
00000040: 855b 133e f810 913c 2ff9 b73d 0a33 483e
00000050: 27a9 2b3e bd0a 103e 93c4 ba3d 3e87 2b3e
00000060: 3f73 953d 7790 71bc 6c9d 013e 76b6 2a3e
00000070: 4b9b 773e 791d cc3d 78e8 4c3e a4d6 6c3e
00000080: 9e23 9a3c 4056 673e 5138 803e b229 a43d
00000090: 1b5b cf3d e922 1f3d cfe5 283e dc88 673e
000000a0: 177b 2d3e 6462 713e ccf0 af3d bef7 413d
000000b0: 5eab 0b3e a28d e63d 7857 e53d bc06 373e
000000c0: 3b11 d03d cc09 223e 5cf9 283e f7ad 283e
000000d0: 87d5 993d 8b27 053e 8d40 ee3d e67f 773e
000000e0: 77d8 133e bd33 cd3d be00 543e 78b0 033e
000000f0: 047f 0b3e 3d5c e63d b39f df3d 75cb f73d
00000100: ba3a db3d e493 aa3d c803 603d a7c8 233d
00000110: 71de c23d cab1 7c3d 46eb 243e b7b5 e23d
00000120: cd4b 6f3e 156a 953d 4f23 683e 2101 103e
00000130: 1e85 3b3e 879e 1abc 1aa4 d33d 2e8d fb3c
00000140: 558d 033d c430 0a3e ce92 0a3e 23e5 dc3d
00000150: 8e4d 5f3e ba5c 0b3e 3e69 353e 50da e33d
00000160: f837 a13d cf21 943d fb3b a23d a3dc 473e
00000170: e353 193d eeae 573e c570 0c3e 70d9 0b3e
00000180: 9ad3 073d cfce 383d ca58 4b3e 75bc 183e
00000190: 08a5 543d 5281 933d b843 373e 0845 503e
000001a0: 580f 8d3d e6b7 673e 3aa3 673e 216a 4a3e
000001b0: 4a14 a73d b8d8 7f3d 28ea 503e e44d 023e
000001c0: 57bf 8b3e ccf1 923e d9af e23d 0cff 793e
000001d0: d072 473e 0b43 893e 5580 3f3e 8dae 033e
000001e0: 6dc9 e23d 1027 e03d 51ac b43d 64e3 263d
000001f0: 8d3d fc3d a7e3 d83d b6e2 223e 25ac 883e
00000200: ae51 aa3b ed2d 07bc 66e9 c7bd 1755 87bd
00000210: 3e70 6a3d 75d5 653e 4775 0abc 2e1b 103e
00000220: e40b aa3d 0252 cdbc c677 503d 62b3 ff3c
00000230: 5129 a93d 3b88 ba3d 7f22 aabd 69a7 273e
00000240: b14a 343e 2663 5c3d b3d1 99bd 59e2 ab3d
00000250: 28ab 343d 6e9e 74bc 454a d93d 0b94 b4bd
00000260: fe82 b1bd 5b73 be3d 4a9f de3c a987 4d3d
00000270: 9e87 7b3e c1f5 1d3d 38f3 ed3c ce2c ab3d
00000280: 8015 c8bc bd04 85bd 559d 153d 1b4a d7bc
00000290: 63da b7bc d298 0e3e 1c66 023e 5de2 103e
000002a0: ab2e 183e d0a3 5a3c c38d 173e db84 183e
000002b0: e4f8 f83d 3b02 f33d 4f06 1a3d 1df9 773b
000002c0: 3016 b7bc 25bc 953b 2643 66bc 6eea dd3d
000002d0: e7e0 8a3d 2bf2 c23d 062c a8bc fbfa 023e
000002e0: 50f0 b63d 57a7 fd3d 741d 9e3d 43d9 ba3d
000002f0: 8f41 283d 1186 e13d 1eac e1bd 6367 483e
00000300: 120e b43b 6359 04be 4512 b5bc 3251 e2ba
00000310: 98fc fe3c e893 213d f99b a83d fa5a 273e
00000320: c124 cf3d d748 bb3c a9fd 003e af94 7f3d
00000330: cb01 7d3d 39ed bf3d e22b 0dbd 2c33 833d
00000340: a741 073d 00ab f73d bf5c 75bd f69e 213e
00000350: a22b 8cbb 04ce 89bd 7952 b73d 3e31 9b3c
00000360: 2e62 813d 0b20 993d 8eea 993c fb93 8f3d
00000370: cf43 ca3d 7a20 403d 695c 24bc 01ed ee3d
00000380: 89c0 4d3d 601c 863d 474d 453e c7cf 143e
00000390: 2dbf fd3c 9b7c aebd 78f6 233e 8ae4 323e
000003a0: 768d 393e e3b2 f5bb 1d51 53bd 9847 a7bd
000003b0: b4f6 b4bd d0f5 053d e241 8ebb 7748 bdbd
000003c0: 32c7 5f3d 477f 9a3d 346d 1b3d 78a9 bebc
000003d0: d26f c03c 731c bebc 201c eb3c 9af3 a03c
000003e0: c868 5c3d 70fa e5bc 9345 0c3d b3da 3d3c
000003f0: 62d4 923b 3730 14be 39b6 9bbb 18fd 893c

fc.weight f4 [43, 128]
0.25068554 -0.16073388 -0.0059957486 -0.20196342 -0.09693737 -0.25561187 0.13095954 0.27336934
-0.20872037 0.020209253 -0.07223586 0.047157213 -0.05918646 -0.04610185 -0.067576125 -0.01353288
-0.19228618 0.069388054 -0.11267519 0.150103 0.14918755 -0.23466465 -0.04386246 -0.17748341
0.17916015 -0.24998257 -0.14502652 0.19600537 0.13154435 -0.038097084 -0.10353945 -0.0684228
-0.2956143 0.14178948 0.16201624 -0.06592497 -0.20857288 0.2509326 -0.03755564 -0.30267325
-0.18881948 0.13500245 0.14798494 0.22708125 -0.09581902 -0.009626699 -0.06975598 -0.20077915
-0.19383205 0.24236368 0.055645943 0.12582494 0.19068553 -0.30936283 -0.098808385 -0.14515436
-0.021842808 0.055095125 0.033202086 0.044480976 0.13894358 0.19775264 0.19413705 -0.14587373
0.032974195 -0.14661035 -0.22690283 0.2190079 0.15024433 -0.26237175 0.10167291 -0.18267676
-0.29031348 0.15285029 0.08971554 0.26061547 -0.034318645 0.21397372 -0.26247963 -0.12057987
0.008826737 -0.13035901 0.31579018 0.22661495 -0.018605893 -0.17941473 0.20924695 0.07953315
-0.18815108 0.17257477 0.22213617 -0.15878753 0.24056372 -0.27041715 -0.121114306 0.08257044
0.3095585 0.17531113 0.15745799 -0.071757175 0.09794369 -0.12935187 0.15832376 0.05844729
-0.11942629 0.07173764 -0.074248776 0.20284869 0.06871164 -0.19088411 -0.22750492 0.251146
0.13090594 0.18466824 -0.07541611 -0.30179632 -0.2955653 -0.26265144 0.07675591 -0.21120839
-0.2205826 0.13512626 -0.16541609 -0.15762904 -0.18178056 0.15490125 -0.13514893 0.28640348
0.21880138 -0.05449181 -0.13025916 -0.20922127 -0.017706417 -0.13217533 0.23139665 0.22125661
-0.14937714 -0.008399815 -0.15651478 0.12418172 -0.09946846 -0.0074175126 0.014220624 -0.038394134
-0.090087175 0.23354168 -0.13867521 0.24829139 0.17871088 -0.14321093 0.0016420956 -0.2677142
0.1543342 -0.27689636 -0.2023269 0.18195261 0.25800207 0.100889735 -0.10115301 -0.011272013
-0.27533507 0.14957336 0.11187556 -0.16161083 -0.21257855 0.25355026 -0.04668451 -0.2406423
-0.25713176 0.17993261 0.128955 0.18845168 -0.08247941 -0.076603495 -0.09552502 -0.23957953
-0.17412542 0.19214062 0.028412415 0.21514876 0.10773098 -0.22026955 -0.23967555 -0.25345868
0.016480077 0.14765278 0.004884627 0.18239929 0.034904912 0.24152255 0.27668577 -0.14438276
0.14509167 -0.099526584 -0.23925857 0.11306122 0.26509583 -0.29140985 0.15211228 -0.13128634
-0.20799983 0.07099642 -0.009291899 0.24378228 -0.07829486 0.2739133 -0.20854816 -0.17952126
0.08606182 -0.14798817 0.27644858 0.1929997 0.010912159 -0.08792058 0.16689162 0.16554882
-0.20367248 0.06381144 0.19849509 -0.23587103 0.20958805 -0.1798623 -0.1859294 0.123070605
0.21353775 0.20154755 0.1363821 0.014481522 0.13421665 -0.124488376 0.1418667 0.04907052
-0.15995696 0.08957314 -0.06266114 0.25969404 -0.018455857 -0.31350997 -0.25843 0.1676905
0.23465951 0.08861835 -0.015308747 -0.20539384 -0.25190967 -0.2630784 0.0043007247 -0.24293809
-0.11780768 0.16535695 -0.25462732 -0.14729083 -0.16176197 0.20795046 -0.18840808 0.23973599
00000000: db59 803e 6c97 24be fc77 c4bb 80cf 4ebe
00000010: 1a87 c6bd 8fdf 82be 421a 063e 11f7 8b3e
00000020: cbba 55be e08d a53c 65f0 93bd ec27 413d
00000030: 806d 72bd 4bd5 3cbd 5a65 8abd 03b9 5dbc
00000040: abe6 44be 531b 8e3d 40c2 e6bd 9ab4 193e
00000050: 9fc4 183e ee4b 70be 1fa9 33bd 36be 35be
00000060: c275 373e 6efb 7fbe d581 14be a2b5 483e
00000070: 90b3 063e b00b 1cbd 7e0c d4bd 4121 8cbd
00000080: c25a 97be 4331 113e 96e7 253e ac03 87bd
00000090: 2194 55be 3d7a 803e f1d3 19bd fdf7 9abe
000000a0: e559 41be 153e 0a3e 5d89 173e fd87 683e
000000b0: c33c c4bd 4db9 1dbc 39dc 8ebd 0d99 4dbe
000000c0: e97b 46be 2f2e 783e 00ed 633d 41d8 003e
000000d0: 1143 433e ce64 9ebe 0d5c cabd 58a3 14be
000000e0: b0ef b2bc 6dab 613d e9fe 073d af31 363d
000000f0: 3a47 0e3e ab7f 4a3e ddcb 463e ec5f 15be
00000100: f30f 073d 0621 16be 3759 68be 9b43 603e
00000110: a6d9 193e 9755 86be e339 d03d 9e0f 3bbe
00000120: f8a3 94be c984 1c3e c8bc b73d 646f 853e
00000130: b591 0cbd ed1b 5b3e bb63 86be 94f2 f6bd
00000140: 059e 103c d57c 05be 40af a13e c00d 683e
00000150: 636b 98bc 7fb8 37be d544 563e 47e2 a23d
00000160: adaa 40be 71b7 303e aa77 633e 3399 22be
00000170: 5656 763e 1e74 8abe c70a f8bd b11a a93d
00000180: 747e 9e3e c384 333e ab3c 213e 6df5 92bd
00000190: b496 c83d d174 04be a01f 223e 6d66 6f3d
000001a0: c595 f4bd 2feb 923d be0f 98bd 91b7 4f3e
000001b0: b0b8 8c3d 2077 43be 0df7 68be 3596 803e
000001c0: 350c 063e ac19 3d3e c373 9abd 0c85 9abe
000001d0: 5654 97be 407a 86be 3432 9d3d 0347 58be
000001e0: 68e0 61be 8a5e 0a3e d662 29be 8269 21be
000001f0: af24 3abe 6f9e 1e3e 7b64 0abe 7aa3 923e
00000200: 780d 603e ce32 5fbd a862 05be 1a3e 56be
00000210: 0c0d 91bc f858 07be 3ef3 6c3e 1891 623e
00000220: 52f6 18be 619f 09bc 6945 20be fc52 fe3d
00000230: 1fb6 cbbd 9b0e f3bb 9ffd 683c 2b43 1dbd
00000240: a07f b8bd 8d25 6f3e e000 0ebe 1940 7e3e
00000250: fcff 363e e3a5 12be 963b d73a d611 89be
00000260: c909 1e3e 5cc5 8dbe c82e 4fbe c951 3a3e
00000270: d918 843e 479f ce3d 4f29 cfbd 40ae 38bc
00000280: b8f8 8cbe c229 193e 031f e53d 4f7d 25be
00000290: 31ae 59be 57d1 813e 4238 3fbd ef6a 76be
000002a0: c6a6 83be 4140 383e c80c 043e 7af9 403e
000002b0: f7ea a8bd 4be2 9cbd 9fa2 c3bd 5654 75be
000002c0: ef4d 32be 83c0 443e 27c1 e83c f54f 5c3e
000002d0: 0fa2 dc3d 578e 61be 826d 75be 56c5 81be
000002e0: 3a01 873c 4a32 173e 390f a03b e1c6 3a3e
000002f0: 74f8 0e3d b051 773e c2a9 8d3e 13d9 13be
00000300: e992 143e 98d4 cbbd 3300 75be a48c e73d
00000310: a4ba 873e ac33 95be 52c3 1b3e ed6f 06be
00000320: e8fd 54be 9266 913d 0d3d 18bc 10a2 793e
00000330: 0e59 a0bd 5d3e 8c3e a68d 55be 6cd4 37be
00000340: 2e41 b03d 368a 17be ab8a 8d3e b7a1 453e
00000350: eac8 323c b40f b4bd a3e5 2a3e a185 293e
00000360: 858f 50be 92af 823d 4c42 4b3e 2d88 71be
00000370: 409e 563e d32d 38be 4764 3ebe 710c fc3d
00000380: a4a9 5a3e 7b62 4e3e c0a7 0b3e e843 6d3c
00000390: 1770 093e c3f3 febd 8145 113e 2bfe 483d
000003a0: c2cb 23be 1f72 b73d 7c54 80bd 9ef6 843e
000003b0: bd30 97bc 6184 a0be f050 84be 0fb7 2b3e
000003c0: 954a 703e 8a7d b53d 8ad1 7abc c352 52be
000003d0: 4efa 80be 36b2 86be 18ed 8c3b c3c4 78be
000003e0: 2745 f1bd 5553 293e 835e 82be 68d3 16be
000003f0: eea4 25be f7f0 543e 0cee 40be 5a7d 753e

fc.bias f4 [43]
-0.15788397 -0.23294573 -0.20904063 0.13242136 -0.14205728 -0.22865847 -0.045204222 -0.05047422
-0.0066489857 -0.028721754 -0.15414447 -0.2086772 0.0854269 -0.2650751 0.04471213 0.019743225
0.07402098 0.014619512 -0.13520001 0.053752474 0.017065875 0.0495978 -0.05985031 0.037916575
-0.17445184 -0.086949706 0.017838953 -0.0015601638 -0.020914387 -0.08228628 -0.23665927 -0.2569684
-0.0623692 -0.04285725 0.08259874 0.061284162 -0.26123452 -0.13059957 -0.040306587 0.0035294027
-0.051647566 0.009657166 0.04367026
00000000: 56ac 21be 5389 6ebe bf0e 56be 7799 073e
00000010: 7777 11be 7225 6abe 1028 39bd 0ebe 4ebd
00000020: bcdf d9bb e249 ebbc 0cd8 1dbe 7aaf 55be
00000030: 4cf4 ae3d ecb7 87be 1124 373d 8bbc a13c
00000040: 5098 973d ad86 6f3c df71 0abe 8e2b 5c3d
00000050: bccd 8b3c 1027 4b3d 9925 75bd 694e 1b3d
00000060: 81a3 32be b012 b2bd ff22 923c 697e ccba
00000070: a654 abbc b685 a8bd cf56 72be 5d91 83be
00000080: d976 7fbd 158b 2fbd 8729 a93d 1a05 7b3d
00000090: 88c0 85be e5bb 05be 8518 25bd 8d4d 673b
000000a0: 668c 53bd 1739 1e3c 96df 323d
